ANN/best_simple_ann.pth (torch, 22283 bytes, 15 tensors)

fc1.weight f4 [32, 2]
0	0xb8fd83f3	-0.000120885576
1	0xb11c3541	-2.273126e-09
2	0x3fe4fe4c	1.7890105
3	0x3f4f0a94	0.80875516
4	0x3f5d1486	0.8635944
5	0xbf26e9a2	-0.65200245
6	0x3f01b4ea	0.5066668
7	0xbf71ff6c	-0.9453037
8	0x3c28d9c1	0.010305823
9	0xba51f831	-0.00080097007
10	0x3eacc5ed	0.33744755
11	0xbf801765	-1.000714
12	0x3eca1775	0.3947102
13	0x3fe2da92	1.7722952
14	0x3ea80c7b	0.32822022
15	0xbf8417a5	-1.0319716
16	0xbcf59a40	-0.029980779
17	0x3fb39646	1.4030235
18	0x3e76d1e0	0.24103498
19	0x3fb55020	1.4165077
20	0xbe5ecbbf	-0.2175741
21	0xbcd98d1f	-0.02655655
22	0x3cd34062	0.025787536
23	0x3f5e1536	0.86751115
24	0x3fd1da5c	1.6394763
25	0x3eb975c1	0.36222652
26	0x3ecc31b9	0.39881685
27	0x3fc4dedb	1.538051
28	0xbea72c28	-0.32650876
29	0xbd5633f5	-0.052295644
30	0x3eba85ba	0.3643015
31	0xbf8ad564	-1.0846372
32	0x3fd60463	1.6720089
33	0x3ee165f7	0.44023106
34	0x3f94dcc0	1.1629868
35	0x3f546d02	0.8297883
36	0xbe8c7ace	-0.27437443
37	0x3fab8100	1.3398743
38	0x3fe30f4b	1.7739042
39	0x3f01f2f2	0.5076133
40	0x3ecd7394	0.40127242
41	0xbf0dce73	-0.5539314
42	0x3b9bf39a	0.004759264
43	0x3f8d3388	1.1031351
44	0x3f47e617	0.78085464
45	0xbf9f47a3	-1.2443737
46	0x0db2aefd	1.1012224e-30
47	0xba0e489f	-0.00054276915
48	0xbe8393fe	-0.25698847
49	0xbbb67494	-0.0055680964
50	0x3e7f474e	0.24929544
51	0x3fc6bf16	1.5527065
52	0x3f97cc1e	1.1859167
53	0xbfba5716	-1.4557827
54	0x3f85235a	1.0401413
55	0x3ea9727d	0.3309516
56	0x3f157dee	0.5839528
57	0xbf711ce3	-0.941847
58	0xbf443e3f	-0.7665748
59	0x3eb6a682	0.3567391
60	0xbf530f30	-0.8244505
61	0x3f9bade4	1.2162442
62	0x3f4c62d7	0.7983832
63	0x3f3723d5	0.7153905

fc1.bias f4 [32]
0	0x00000000	0.0
1	0xbeca3f3d	-0.39501372
2	0x3f18f261	0.5974484
3	0x3eeda195	0.4641234
4	0xbc81cc43	-0.01584447
5	0xbd8d61d0	-0.06903422
6	0xbed24c5a	-0.41073877
7	0xbdd10cec	-0.10207543
8	0x3e8afa34	0.27144015
9	0xbe846aa4	-0.2586261
10	0x3f02abde	0.510435
11	0x3ec6d40f	0.38833663
12	0xbec592ee	-0.3858866
13	0xbed2542b	-0.4107984
14	0x00000000	0.0
15	0x3e6575c6	0.22408208
16	0xbee2ec71	-0.44321015
17	0xbef419df	-0.47675988
18	0x3eced269	0.40394905
19	0xbee62b3f	-0.4495487
20	0x3f116a93	0.56803244
21	0xbecab46c	-0.39590776
22	0xbb32e2a4	-0.0027295733
23	0x00000000	0.0
24	0x00000000	0.0
25	0xbecd6130	-0.4011321
26	0x3ea0d7ab	0.31414542
27	0xbeac81e2	-0.33692843
28	0x3ef72b74	0.4827534
29	0xbdea5158	-0.11441296
30	0x3f0d5911	0.5521403
31	0x3ea7d65a	0.32780725

fc2.weight f4 [32, 32]
0	0xb99c9829	-0.00029868007
1	0xb9f72549	-0.0004713929
2	0x92df24dc	-1.4082365e-27
3	0xab847745	-9.412268e-13
4	0x39f66af5	0.00047000466
5	0x33122864	3.403001e-08
6	0xad457a84	-1.12253574e-11
7	0xb6a3b9f0	-4.8794245e-06
8	0x9cdc7ca4	-1.4590598e-21
9	0x35106c61	5.380189e-07
10	0xb79bf3a5	-1.8590896e-05
11	0x38e91cca	0.00011115668
12	0x93acc75d	-4.361549e-27
13	0xb7ad0412	-2.0625102e-05
14	0x8d02f506	-4.035428e-31
15	0x34f9219f	4.6404327e-07
16	0x9080cdde	-5.0804287e-29
17	0xa3742388	-1.32347905e-17
18	0x8e64be9b	-2.8194943e-30
19	0x2f5c1f19	2.0019932e-10
20	0xb9941c76	-0.00028249965
21	0xafccb12f	-3.723328e-10
22	0xaf9054f5	-2.6253813e-10
23	0x9347e7a9	-2.5231548e-27
24	0xb4170919	-1.406628e-07
25	0x0dc94102	1.2403231e-30
26	0xb73e407b	-1.13398955e-05
27	0xb14def08	-2.99673e-09
28	0xb8faab67	-0.00011952855
29	0x31ab2836	4.9813265e-09
30	0xb89589e2	-7.130556e-05
31	0x985e1a5e	-2.870614e-24
32	0x2f0a5f52	1.2584891e-10
33	0x3dd26966	0.102740094
34	0xbdde6453	-0.10858979
35	0xbdb45e0a	-0.08806999
36	0x0e615ba8	2.7777522e-30
37	0xbc80bec3	-0.015715962
38	0x3dd52449	0.104073115
39	0xbbd7aa3d	-0.0065815733
40	0xbaf5ee9b	-0.0018763127
41	0x3d89a7ee	0.06721483
42	0xbe24356f	-0.16036008
43	0xbcab6cd6	-0.02092592
44	0x3e0be65c	0.13662094
45	0x3dfdf906	0.12401013
46	0x2f56de4e	1.9542165e-10
47	0xbb959339	-0.0045646694
48	0x3e0f6922	0.14004949
49	0x3e327726	0.17428264
50	0xbcb74087	-0.022369636
51	0x3e1df4c1	0.15425397
52	0xbe191c83	-0.14952283
53	0x3e0ec813	0.1394351
54	0x3d307a4b	0.043085378
55	0x37a4e4d9	1.9656889e-05
56	0x388aef1d	6.624891e-05
57	0x3decae9b	0.11556741
58	0xbc1a059e	-0.009400753
59	0x3e32c658	0.17458475
60	0xbd8ac7c2	-0.06776382
61	0x3ddf7711	0.10911382
62	0xbd600ce6	-0.0546998
63	0xbb811bd1	-0.0039400836
64	0x8fef3257	-2.358661e-29
65	0x3e5ff6ba	0.21871462
66	0x3e114271	0.14185502
67	0xbe33994c	-0.17538947
68	0x3aaaeb40	0.0013040081
69	0xbe67026b	-0.22559516
70	0xbe8d7da3	-0.27634916
71	0xbe515d97	-0.20445858
72	0xbe8a5056	-0.27014416
73	0xbd8569a2	-0.065142885
74	0xbc9a5396	-0.018838685
75	0x3cdd493e	0.027012464
76	0x3d7e240b	0.062046092
77	0x3e0b7f5e	0.13622805
78	0x39017bed	0.00012348565
79	0xbdf7f044	-0.12106374
80	0xbe1b59cd	-0.15170975
81	0x3df06b14	0.117391735
82	0xbca1b2ef	-0.019738642
83	0xbe218893	-0.15774755
84	0xbe47075f	-0.19436406
85	0x3b3cca11	0.0028806964
86	0x3e95aa8f	0.29231688
87	0xb88192b2	-6.1785235e-05
88	0xb9b24066	-0.00033998786
89	0x3cd44695	0.025912562
90	0x3e3e555e	0.18587252
91	0xbead0bdc	-0.3379811
92	0x3e05ab92	0.1305373
93	0x13e68cf1	5.819914e-27
94	0x9b639ffc	-1.8828694e-22
95	0xbd76e041	-0.06027246
96	0xb0060c55	-4.876644e-10
97	0x3e851438	0.25991988
98	0xbdf53caf	-0.11974465
99	0x3e5f0788	0.21780217
100	0x3790dfa0	1.7270271e-05
101	0xbe5f72e1	-0.21821167
102	0xbe355f33	-0.17712097
103	0xbdb288fe	-0.087175354
104	0xbe51f772	-0.20504549
105	0xbe29898a	-0.16556373
106	0x3f71be20	0.9443073
107	0x3eee89e3	0.46589574
108	0xbec3b217	-0.3822181
109	0xbe3d1a45	-0.18467052
110	0xb728a9ce	-1.0053116e-05
111	0xbd6ce3ae	-0.05783432
112	0xbf0608f8	-0.52357435
113	0x3db77800	0.08958435
114	0x3d9e4aaf	0.077290885
115	0x3e69f80e	0.22848532
116	0x3f0769a3	0.52895564
117	0xbdd9c089	-0.10632426
118	0xbe903ffb	-0.28173813
119	0x38408298	4.5897992e-05
120	0x38dc8aca	0.00010516269
121	0xbea982fd	-0.3310775
122	0x3ebd7097	0.36999962
123	0x3de64c46	0.11245017
124	0xbe2cda46	-0.1688014
125	0xbe09fada	-0.13474599
126	0xbda60d16	-0.08107965
127	0xbce76d16	-0.028250258
128	0xa5543133	-1.8404738e-16
129	0x8db9403e	-1.1416971e-30
130	0xb7950fe7	-1.776959e-05
131	0x24c03597	8.335751e-17
132	0x8e146f3d	-1.8295968e-30
133	0x36952ab9	4.4455196e-06
134	0x8dfe6df8	-1.5680433e-30
135	0xb681a006	-3.8631288e-06
136	0x1c5fd809	7.406373e-22
137	0xb3d2eb0b	-9.821641e-08
138	0xb58cebba	-1.0499418e-06
139	0x957c50bc	-5.0954683e-26
140	0x15e42f4b	9.216308e-26
141	0x072bbfd0	1.2920979e-34
142	0x149a28a9	1.5566064e-26
143	0x22278572	2.2703366e-18
144	0x2acdbdda	3.654705e-13
145	0x33e24118	1.05357856e-07
146	0xb5d08326	-1.5535377e-06
147	0x9059087e	-4.2802246e-29
148	0xabd69da9	-1.5249374e-12
149	0xb3845c93	-6.163568e-08
150	0x99d4289a	-2.1936685e-23
151	0x0d400bd3	5.91788e-31
152	0x209a9011	2.618395e-19
153	0x2cbb7d55	5.3287743e-12
154	0xac62f664	-3.2253306e-12
155	0x95004135	-2.5900833e-26
156	0xa9435462	-4.337189e-14
157	0x1ce11fba	1.4897452e-21
158	0xafd16fbf	-3.809628e-10
159	0x0ff4895c	2.4113167e-29
160	0xb268247a	-1.3512471e-08
161	0xb9af12e0	-0.00033392664
162	0xb95dfb24	-0.0002116976
163	0xb95083dc	-0.00019885547
164	0x0e11de2d	1.7979604e-30
165	0x382a63dc	4.062416e-05
166	0xb7c6a10c	-2.3678433e-05
167	0xb83a6fb0	-4.4449873e-05
168	0xbaa13a9c	-0.0012300792
169	0xba468bd4	-0.00075739366
170	0x385b5694	5.22943e-05
171	0xba455ae9	-0.00075285
172	0x383fdb6d	4.5742305e-05
173	0xb9f005cc	-0.00045780686
174	0x267b0e8e	8.7102844e-16
175	0x364e8536	3.077393e-06
176	0xb895eb7d	-7.148737e-05
177	0xb98933b0	-0.00026169186
178	0xbaa7dc11	-0.0012806674
179	0xb90f2471	-0.00013651118
180	0xb94d709c	-0.00019592274
181	0xb9deb779	-0.00042479837
182	0xb7bd3b19	-2.2558075e-05
183	0x1e9473cf	1.5718007e-20
184	0x39130ad3	0.00014023045
185	0xba40197b	-0.00073280156
186	0x38a38dba	7.798844e-05
187	0x3899ed4e	7.33981e-05
188	0xb70b69e2	-8.309698e-06
189	0xb85d6261	-5.278213e-05
190	0xbab0caad	-0.0013488136
191	0x38e49d5b	0.00010901197
192	0x0bb75d2b	7.062922e-32
193	0xbcbc861f	-0.023013173
194	0xbcf24108	-0.029572025
195	0xbca6a172	-0.020340655
196	0x3635f5c1	2.711415e-06
197	0xbae443c9	-0.0017415221
198	0xbcbdef0c	-0.023185275
199	0xba9e6fc8	-0.0012087757
200	0xbce4c287	-0.02792479
201	0xbcb92dee	-0.022604909
202	0xbcea5359	-0.028604196
203	0xbcccec02	-0.025014881
204	0xbcd3e0d1	-0.025864037
205	0xbcb1e350	-0.021714836
206	0x16129321	1.1840212e-25
207	0xbc55e6a2	-0.013055475
208	0xbccc39ff	-0.024929998
209	0xbcbadc72	-0.022810195
210	0xbcce353c	-0.025171869
211	0xbccfafeb	-0.025352439
212	0xbcd18564	-0.0255763
213	0xbc844188	-0.016144529
214	0xbc6f1108	-0.014591463
215	0x990393da	-6.8024e-24
216	0x98c4af24	-5.084166e-24
217	0xbcad4207	-0.021149648
218	0xbcc1ed46	-0.023672711
219	0xbc8bdf68	-0.017074302
220	0xbce422c1	-0.027848603
221	0xbb52bc37	-0.0032155642
222	0xbcb5393e	-0.022122022
223	0xbce20c9e	-0.027593907
224	0xb9fa41c4	-0.00047732715
225	0x3f0b11a2	0.5432378
226	0xbec24f72	-0.37951237
227	0xbca480b7	-0.020080907
228	0x36043ead	1.9706015e-06
229	0x3d50a3c9	0.050937448
230	0x3e6f9102	0.2339516
231	0xbe5981fa	-0.21240988
232	0xbdb4c933	-0.08827438
233	0x3df46bf2	0.119346514
234	0xbee9bcc7	-0.45651838
235	0x3e8b18c1	0.27167323
236	0x3f0451f2	0.5168754
237	0x3e0e128d	0.13874264
238	0x339f8c5a	7.429544e-08
239	0xbea25173	-0.31702766
240	0x3f1936ac	0.5984905
241	0x3f347acb	0.7049987
242	0xbebaf860	-0.3651762
243	0xbd97c146	-0.07409911
244	0xbcba7fec	-0.022766076
245	0x3e1f8275	0.15577109
246	0x3db72b5d	0.08943818
247	0xb5d5afae	-1.5920866e-06
248	0x0d6786b2	7.1344504e-31
249	0x3f1b536b	0.6067416
250	0xbddb9c6c	-0.107231945
251	0x3e748554	0.23878986
252	0xbed78a2b	-0.420976
253	0x3e11145a	0.1416792
254	0x3d1570a9	0.036484394
255	0x3d82d999	0.0638916

fc2.bias f4 [32]
0	0x00000000	0.0
1	0xbdfba3d8	-0.1228711
2	0xbd0baa46	-0.034097932
3	0x3eb96b97	0.36214897
4	0x00000000	0.0
5	0xba5cde14	-0.0008425426
6	0xbcd1f1d8	-0.025628015
7	0xbecf6cfb	-0.40512833
8	0xbea7ca34	-0.32771456
9	0xbe8fb4ed	-0.28067723
10	0x3ee9b2d9	0.45644262
11	0xbee9358d	-0.45548669
12	0x3e8fdd1c	0.2809838
13	0xbe902c6f	-0.281589
14	0x3ee21be5	0.44161907
15	0x3ecdac16	0.40170354
16	0xbce0c1ab	-0.027436098
17	0xbe9d30d0	-0.30701303
18	0xbe8d3050	-0.27575922
19	0x3dfaa2fd	0.12238119
20	0x3eb96195	0.36207262
21	0x3ea36e5a	0.3192013
22	0x3ea7336c	0.3265642
23	0x3eeb1c7c	0.4592017
24	0xbeeee069	-0.46655586
25	0x00000000	0.0
26	0xbea00eb3	-0.31261215
27	0xbe98161f	-0.29704377
28	0x3ae7306b	0.0017638331
29	0x3eb61e46	0.35569972
30	0x00000000	0.0
31	0x3f04aa12	0.51822007

fc3.weight f4 [1, 32]
0	0x0f16cd04	7.4350556e-30
1	0x3e6e4c98	0.23271406
2	0x3e15a4a6	0.1461359
3	0xbf4757e3	-0.7786848
4	0xa8beffae	-2.1205121e-14
5	0x3a1a8afd	0.00058953447
6	0xbcb3e45e	-0.02195948
7	0x3f087953	0.53310126
8	0x3ecf861c	0.40532005
9	0x3f1f688e	0.6226891
10	0xbf2aab31	-0.6666747
11	0x3e9fc577	0.3120534
12	0xbeee3bed	-0.46530095
13	0x3f50ddc6	0.815884
14	0xbf6b6f1d	-0.9196642
15	0xbf0112b7	-0.5041918
16	0x3e89421d	0.26808253
17	0x3f104074	0.5634835
18	0x3f2b3e6d	0.6689213
19	0xbec25618	-0.3795631
20	0xbf0f2510	-0.5591593
21	0xbf2e4a8e	-0.6808251
22	0xbf4dba12	-0.80362046
23	0xbe99fed9	-0.30077246
24	0x3ea2ab5b	0.3177136
25	0x8d15daa1	-4.6177335e-31
26	0x3f3bc803	0.7335207
27	0x3f0d9c02	0.55316174
28	0xbc12d96a	-0.008962968
29	0xbf220d6c	-0.6330173
30	0xaea494ac	-7.484266e-11
31	0xbf4ae2a5	-0.7925208

exp_avg f4 [32, 2]
0	0xb268cf57	-1.3551321e-08
1	0xaaaf79a4	-3.117065e-13
2	0x3b43f553	0.0029900863
3	0x3b98dc3d	0.0046649263
4	0xbb0b59e3	-0.0021263293
5	0xbb507c7c	-0.003181248
6	0xbaecda59	-0.0018070444
7	0xb8e92cb6	-0.00011118634
8	0x358ac715	1.0339742e-06
9	0xb3ba9d12	-8.689871e-08
10	0xb9db9cae	-0.0004188767
11	0xb92f8a1f	-0.00016740755
12	0x3b184459	0.0023234098
13	0x3b938759	0.0045022187
14	0x39079517	0.00012930144
15	0xb8cfd364	-9.909904e-05
16	0xb969bfbf	-0.00022292043
17	0xb971f1a9	-0.00023073576
18	0x3a9ccdc4	0.0011963178
19	0x3b1a61b8	0.002355678
20	0xbbdd2ea5	-0.006749945
21	0xbc372157	-0.011177382
22	0xbabfcd23	-0.0014633279
23	0xbb1c106d	-0.0023813501
24	0x3b6c6a22	0.0036074002
25	0x3b94fac9	0.0045464975
26	0x3b1506f1	0.0022739733
27	0x3b8f9ab1	0.0043824543
28	0xb80af4c5	-3.3129723e-05
29	0xb6b55648	-5.404265e-06
30	0xb9cdbf1f	-0.00039243043
31	0x36ed9a7b	7.0811343e-06
32	0x3b6d35b8	0.003619535
33	0x3b962827	0.0045824233
34	0x3b4c80c3	0.0031204678
35	0x3ba36070	0.0049858615
36	0xba26f939	-0.00063695345
37	0xba67b887	-0.00088394474
38	0x3b56026c	0.0032655252
39	0x3ba51902	0.0050383816
40	0xbba2cec1	-0.0049684946
41	0xbc09c53c	-0.008408841
42	0x3a6c21dd	0.00090077316
43	0x3b98295d	0.0046436028
44	0x39fbe4cb	0.00048044915
45	0xb8df5790	-0.000106497784
46	0x871f1cec	-1.197033e-34
47	0xb37fa2b9	-5.951981e-08
48	0xb7db2f49	-2.6128853e-05
49	0xb51ec4c7	-5.9145935e-07
50	0x3a67c1d7	0.0008840835
51	0x3b990728	0.0046700425
52	0xba2b1e2d	-0.0006527629
53	0xba12941e	-0.0005591529
54	0x3b9bc91e	0.0047541996
55	0x3bc32104	0.0059548635
56	0xbab09c6f	-0.0013474355
57	0x3aebc940	0.0017989054
58	0x3a7d5e0d	0.0009665199
59	0x3bb754aa	0.0055948095
60	0xbb1c847d	-0.002388268
61	0xbb89359d	-0.0041872994
62	0xba814969	-0.0009863797
63	0xbae3856c	-0.0017358488

exp_avg_sq f4 [32, 2]
0	0x2ea43fe4	7.469206e-11
1	0x2d95479a	1.6971136e-11
2	0x39ad44c6	0.00033048372
3	0x3a0b1be4	0.0005306585
4	0x394c1c4a	0.00019465495
5	0x39618c27	0.00021509883
6	0x3917e0fc	0.00014484295
7	0x3833f41a	4.2904263e-05
8	0x338ecbaf	6.64944e-08
9	0x2f13683a	1.3406601e-10
10	0x361c1aa2	2.3261314e-06
11	0x335dfe2d	5.1686744e-08
12	0x3994e461	0.00028398915
13	0x39ea8205	0.0004472883
14	0x36c499e1	5.859169e-06
15	0x33b549e3	8.441909e-08
16	0x3695620f	4.4519616e-06
17	0x36fcad6b	7.5303738e-06
18	0x38748fda	5.8308106e-05
19	0x38c2b661	9.2846116e-05
20	0x3b0987a0	0.002098538
21	0x3b5805ef	0.003296252
22	0x38f13857	0.000115022696
23	0x393950fa	0.00017673141
24	0x3a017784	0.00049387687
25	0x3a4b7ce1	0.0007762444
26	0x39828214	0.00024892448
27	0x39d02178	0.00039697788
28	0x3170cc87	3.5040857e-09
29	0x30465cb7	7.2163736e-10
30	0x380c054f	3.3383545e-05
31	0x36590783	3.2339892e-06
32	0x3a008454	0.0004902531
33	0x3a474ae1	0.00076024054
34	0x39a41448	0.00031295628
35	0x3a0406f1	0.0005036435
36	0x376b18c0	1.4012854e-05
37	0x37bb375b	2.2317914e-05
38	0x39aa97b0	0.00032537943
39	0x3a09170b	0.0005229569
40	0x3a990473	0.00116743
41	0x3ad5b4b6	0.0016304466
42	0x38bf07f2	9.10907e-05
43	0x39d8953b	0.00041309916
44	0x36de55ae	6.62609e-06
45	0x35186e82	5.678522e-07
46	0x2a73843a	2.1628611e-13
47	0x2eed391c	1.0787657e-10
48	0x313a4d26	2.7110416e-09
49	0x2f7d804f	2.30558e-10
50	0x39806741	0.00024490993
51	0x3a03ad50	0.0005023079
52	0x37bb8716	2.2355041e-05
53	0x3686fa2b	4.0226346e-06
54	0x3a68e9e4	0.000888495
55	0x3ab86fca	0.0014071402
56	0x398225cb	0.0002482369
57	0x38a7a0af	7.99311e-05
58	0x364d680a	3.060794e-06
59	0x396e9765	0.00022753848
60	0x3956808a	0.00020456515
61	0x39f8319b	0.00047339205
62	0x38ae8adb	8.3228304e-05
63	0x390614b6	0.00012786951

exp_avg f4 [32]
0	0x00000000	0.0
1	0x3c43875b	0.011934127
2	0xbc11d5b6	-0.00890105
3	0xbb71c098	-0.0036888476
4	0xb5d531f4	-1.5884275e-06
5	0xba207d22	-0.0006122162
6	0x3c314adc	0.0108210705
7	0x39006533	0.00012244731
8	0xba7ccdc8	-0.0009643701
9	0x3bb47e06	0.005508187
10	0xbced44ea	-0.028963525
11	0xbbd0286b	-0.0063524744
12	0x3c5c2d84	0.013438586
13	0x3c2ce1af	0.010551854
14	0x00000000	0.0
15	0xba4af52f	-0.00077422237
16	0x3c5d34c9	0.0135013545
17	0x3c50703d	0.012722072
18	0xbb2a9cbb	-0.002603336
19	0x3c542b21	0.012949736
20	0xbcb1514f	-0.021645216
21	0x3c0a5464	0.008442972
22	0x3a303395	0.00067215535
23	0x00000000	0.0
24	0x00000000	0.0
25	0x3c1c953f	0.009557067
26	0xbacfdf04	-0.001585931
27	0x3c935e47	0.01798929
28	0xbaf8e59f	-0.0018989331
29	0x3c020642	0.007936062
30	0xbc2a5348	-0.010395832
31	0xbb99a329	-0.0046886397

exp_avg_sq f4 [32]
0	0x00000000	0.0
1	0x3ab9613b	0.0014143357
2	0x3a391123	0.00070597435
3	0x39ad3f82	0.00033044448
4	0x33f46698	1.1380797e-07
5	0x369f6008	4.7497488e-06
6	0x3a9c2ace	0.0011914612
7	0x375eafb8	1.3273144e-05
8	0x37b34401	2.137013e-05
9	0x3977250b	0.00023569555
10	0x3c10c2e6	0.00883553
11	0x3a11fab8	0.0005568671
12	0x3b06957b	0.0020535875
13	0x3a864a7e	0.0010245589
14	0x00000000	0.0
15	0x386c04b5	5.627117e-05
16	0x3b03cbe2	0.0020110537
17	0x3aa7eebb	0.0012812236
18	0x386fe8c5	5.7198824e-05
19	0x3aafce4a	0.0013412919
20	0x3b9aa2ea	0.004719128
21	0x3a4dab43	0.00078456494
22	0x3752a5e5	1.2555601e-05
23	0x00000000	0.0
24	0x00000000	0.0
25	0x3a9bc6f9	0.001188486
26	0x3859356d	5.178659e-05
27	0x3b6f2566	0.0036490797
28	0x3a16f656	0.0005758753
29	0x3992ba56	0.0002798612
30	0x3a99ea3b	0.001174278
31	0x39d481f5	0.00040532617

exp_avg f4 [32, 32]
0	0xb30de42d	-3.3036645e-08
1	0xb35e7792	-5.179715e-08
2	0x0f0e897f	7.027621e-30
3	0xa53edf64	-1.6555561e-16
4	0x335dd243	5.1646804e-08
5	0x2c9acac2	4.399454e-12
6	0xa700bba9	-1.78653e-15
7	0xb01e3849	-5.756005e-10
8	0x965c9148	-1.7817301e-25
9	0x2e910b67	6.595862e-11
10	0xb1137016	-2.1455029e-09
11	0x3256580e	1.2476461e-08
12	0x0d00e5ff	3.9719893e-31
13	0xb1234c8b	-2.3763131e-09
14	0x04eb8d41	5.5377956e-36
15	0x2e7ae0f6	5.7043224e-11
16	0x88b814fd	-1.10790315e-33
17	0x9ddf6727	-5.9134266e-21
18	0x85d07044	-1.9601466e-35
19	0x290369c1	2.917957e-14
20	0xb3065051	-3.1272354e-08
21	0xa9706836	-5.3381094e-14
22	0xa92b14d9	-3.798771e-14
23	0x8c9d8be9	-2.4273885e-31
24	0xad9b8872	-1.7682054e-11
25	0x85d226ca	-1.9762554e-35
26	0xb0b54ec6	-1.3191872e-09
27	0xaae5dbe6	-4.0831157e-13
28	0xb2663c4e	-1.3401474e-08
29	0x2b3cdaad	6.709449e-13
30	0xb20a6df6	-8.057659e-09
31	0x92431fd5	-6.1570387e-28
32	0x28a7591a	1.8579366e-14
33	0x39a22eeb	0.00030934004
34	0x39f4def7	0.00046705428
35	0x398f23ba	0.00027301704
36	0x8884ae28	-7.985405e-34
37	0x37dd4c2c	2.6380723e-05
38	0x39af7be8	0.00033470918
39	0x378af353	1.6564189e-05
40	0x3a37e92e	0.00070156425
41	0x39a427a3	0.0003131005
42	0x39c3b781	0.0003733002
43	0x3a25af61	0.0006320384
44	0x3914235f	0.00014127557
45	0x3987ae47	0.00025879053
46	0x29005c74	2.85019e-14
47	0x38e98f52	0.00011137001
48	0x39015bd5	0.00012336609
49	0x3901c12f	0.00012374365
50	0x3a428ec7	0.0007421788
51	0x392a75fb	0.00016256415
52	0x39c41eae	0.0003740689
53	0x39135cb4	0.00014053547
54	0x39015ad9	0.00012336242
55	0x311bc0b7	2.2665014e-09
56	0x3200c203	7.494694e-09
57	0x3988c114	0.00026083796
58	0x39aee8ac	0.0003336122
59	0x38606904	5.3503565e-05
60	0x3995f9a6	0.00028605497
61	0x380b9022	3.3274417e-05
62	0x3a3d8322	0.0007229318
63	0x3a348bf7	0.00068873115
64	0x88d45c69	-1.2781011e-33
65	0x37c92fc8	2.3983317e-05
66	0x3789ea6e	1.6440837e-05
67	0xb7876924	-1.6142214e-05
68	0x34178e03	1.4114634e-07
69	0xb7bb323d	-2.2315531e-05
70	0xb7e89bf7	-2.7729182e-05
71	0xb7aa0f18	-2.0272608e-05
72	0xb7dffe05	-2.6701959e-05
73	0xb6dbc2ec	-6.5494005e-06
74	0xb5bd48d4	-1.4102793e-06
75	0x3664b238	3.4078384e-06
76	0x37078c06	8.079229e-06
77	0x3765db96	1.370059e-05
78	0x326dbdc3	1.38383625e-08
79	0xb73d4ccf	-1.1283161e-05
80	0xb760146e	-1.3356197e-05
81	0x37567871	1.2783436e-05
82	0xb5e9e774	-1.7427215e-06
83	0xb767bf5b	-1.3813226e-05
84	0xb797933d	-1.8069166e-05
85	0x34a4b1bc	3.06767e-07
86	0x37ff53e1	3.0437428e-05
87	0xb1f06c29	-6.9972157e-09
88	0xb3213602	-3.7534853e-08
89	0x36309c13	2.631689e-06
90	0x37aedd4a	2.0845462e-05
91	0xb8099e6f	-3.2810898e-05
92	0x37771ded	1.4729315e-05
93	0x8ba7cfbc	-6.4638624e-32
94	0x94da3093	-2.2031534e-26
95	0xb6903e90	-4.2988177e-06
96	0xa99c5864	-6.943125e-14
97	0xba7d9ed4	-0.00096748513
98	0xbad12c83	-0.00159587
99	0xba6eea6a	-0.000911391
100	0x31083f5f	1.9826627e-09
101	0xb8f0353d	-0.00011454008
102	0xba94f176	-0.0011363465
103	0xb889c9c3	-6.57025e-05
104	0xbb1dfa90	-0.0024105646
105	0xba8c57fd	-0.0010707375
106	0xba9fd4c4	-0.0012194146
107	0xbb09f0f4	-0.002104816
108	0xb9eb2806	-0.00044852513
109	0xba6425a1	-0.0008703117
110	0xb0a10cea	-1.1717962e-09
111	0xb9c4e648	-0.00037555606
112	0xb9d2d306	-0.00040211546
113	0xb9b542c9	-0.0003457277
114	0xbb25b99d	-0.0025287636
115	0xb9ede022	-0.00045371155
116	0xbaa297b2	-0.0012404828
117	0xb9edb822	-0.00045341352
118	0xb9dc5492	-0.0004202468
119	0x31b36c79	5.2219176e-09
120	0x324af49a	1.18135635e-08
121	0xba6b2c99	-0.0008971184
122	0xba8be221	-0.001067225
123	0xb8d12eb8	-9.974599e-05
124	0xba81256d	-0.0009853073
125	0xb8c18faa	-9.229717e-05
126	0xbb239979	-0.0024963303
127	0xbb1854c5	-0.0023243886
128	0x9f2693e9	-3.5274216e-20
129	0x851a15d2	-7.245053e-36
130	0xb10d06c6	-2.052205e-09
131	0x1eb7a4c8	1.944403e-20
132	0x06eb791d	8.8575135e-35
133	0x30106038	5.252363e-10
134	0x067f6e11	4.8041034e-35
135	0xaffb84cc	-4.5750992e-10
136	0x16388bdc	1.4907533e-25
137	0xad5ab627	-1.2432311e-11
138	0xaf0bd67c	-1.2718177e-10
139	0x8f6aea5b	-1.1582226e-29
140	0x8f110bad	-7.151301e-30
141	0x00ea70ea	2.1530012e-38
142	0x0cde77c9	3.427661e-31
143	0x1d78606b	3.2872374e-21
144	0x249ba7cc	6.7504794e-17
145	0x2d6a4b5d	1.3318094e-11
146	0xaf4d7ccd	-1.868898e-10
147	0x08cd00b4	1.2338154e-33
148	0xa5973c25	-2.623508e-16
149	0xad0a83fd	-7.873699e-12
150	0x938b4c7d	-3.5163956e-27
151	0x07382a24	1.3855005e-34
152	0x994f35a1	-1.07124794e-23
153	0x267b1bd3	8.7120827e-16
154	0xa61af9fb	-5.376827e-16
155	0x8eaa73a0	-4.201958e-30
156	0xa32c851b	-9.352325e-18
157	0x175e5931	7.1844644e-25
158	0xa975d52a	-5.458582e-14
159	0x08455571	5.9382967e-34
160	0xabfaa17c	-1.7808389e-12
161	0xafea85da	-4.265946e-10
162	0xb2dda982	-2.580487e-08
163	0xb2be1fe0	-2.2133406e-08
164	0x06df4484	8.398395e-35
165	0x30c155b0	1.4066952e-09
166	0xb38299b1	-6.081553e-08
167	0xb1c30cfc	-5.676723e-09
168	0xb4162c01	-1.3985847e-07
169	0xb3b68c93	-8.500606e-08
170	0xb2c61982	-2.3061833e-08
171	0xb4018cef	-1.2065333e-07
172	0x30b14ba6	1.2899946e-09
173	0xb342f306	-4.5390173e-08
174	0x210d7dd2	4.793918e-19
175	0x2f902ea4	2.6226588e-10
176	0xb20825d4	-7.924843e-09
177	0xb2f3e40e	-2.839263e-08
178	0xb41c8383	-1.4576476e-07
179	0xb28c6ef9	-1.634861e-08
180	0xb2cf09a5	-2.4102357e-08
181	0xb34dbacd	-4.7900176e-08
182	0xb1302500	-2.5632403e-09
183	0x978b5893	-9.005024e-25
184	0x3286bb81	1.568492e-08
185	0xb3b02962	-8.203166e-08
186	0x3244b4b1	1.1449786e-08
187	0x3210d2aa	8.429803e-09
188	0xb0ae0152	-1.2660542e-09
189	0xb1696eeb	-3.3969012e-09
190	0xb430bc3f	-1.6459761e-07
191	0xb34b7a6f	-4.7375973e-08
192	0x03a39968	9.615499e-37
193	0x34f77e01	4.6099015e-07
194	0xb5411dc2	-7.1941406e-07
195	0xb583cbd3	-9.819581e-07
196	0x2fb199bc	3.2305347e-10
197	0xb49f5792	-2.9679774e-07
198	0x33d76a08	1.0031005e-07
199	0xb438eee9	-1.722325e-07
200	0x353065c1	6.571318e-07
201	0xb41e21f0	-1.4727243e-07
202	0xb5b8cad9	-1.3768105e-06
203	0x35080fbf	5.068686e-07
204	0xb55c069b	-8.1966e-07
205	0xb41d4459	-1.4646629e-07
206	0x9099a1e3	-6.0597285e-29
207	0xb5bc4f21	-1.4030121e-06
208	0xb5489f0f	-7.4737267e-07
209	0xb539b6a5	-6.9183653e-07
210	0x35781503	9.2417775e-07
211	0xb511e77e	-5.4353575e-07
212	0xb57b33da	-9.358024e-07
213	0xb549d749	-7.5191616e-07
214	0xb5ddc9ca	-1.6524511e-06
215	0x91744117	-1.9268263e-28
216	0x1408e9af	6.912331e-27
217	0xb4746596	-2.2761228e-07
218	0xb59af47a	-1.1545046e-06
219	0xb542a888	-7.2515877e-07
220	0xb5d2ee9e	-1.5715666e-06
221	0xb41c6b86	-1.4567749e-07
222	0x355003ca	7.749155e-07
223	0x3563523b	8.468375e-07
224	0xb3613a2e	-5.243981e-08
225	0x3a3dcd5d	0.00072403793
226	0x3a898927	0.0010493145
227	0x3a27913a	0.0006392185
228	0x2f81c105	2.3602112e-10
229	0x38901b33	6.871521e-05
230	0x3a469228	0.00075748796
231	0x37955474	1.780151e-05
232	0x3ad0816f	0.0015907715
233	0x3a394dff	0.0007068812
234	0x3a5d6478	0.0008445452
235	0x3ac1167d	0.0014731433
236	0x39ae0674	0.00033192674
237	0x3a158ff5	0.000570535
238	0x2d2659b1	9.455923e-12
239	0x39690c9d	0.0002222531
240	0x399c3dd0	0.00029800693
241	0x399f6295	0.00030400293
242	0x3ad9ded8	0.0016622199
243	0x39a5c0bc	0.0003161485
244	0x3a67e14e	0.00088455237
245	0x399e5db8	0.00030205934
246	0x3991fff0	0.00027847243
247	0xaf527f0b	-1.9144523e-10
248	0x865e2e5c	-4.178762e-35
249	0x3a23e0d2	0.00062514574
250	0x3a44382d	0.00074851775
251	0x38cf7985	9.893164e-05
252	0x3a237728	0.0006235712
253	0x3887be53	6.472752e-05
254	0x3adace19	0.0016693502
255	0x3ace3ae5	0.0015734105

exp_avg_sq f4 [32, 32]
0	0x2ecb2944	9.2387015e-11
1	0x2ee46f48	1.0388007e-10
2	0x2c03f670	1.875302e-12
3	0x2d348411	1.026114e-11
4	0x2ee441a0	1.0379897e-10
5	0x2dc02b83	2.1847196e-11
6	0x2d4d9291	1.1685445e-11
7	0x2e34a4ca	4.1073624e-11
8	0x2c8c8c24	3.994598e-12
9	0x2e040d84	3.002533e-11
10	0x2e621ff9	5.1414848e-11
11	0x2ea13c12	7.332103e-11
12	0x2bd209e2	1.492414e-12
13	0x2e666790	5.2387927e-11
14	0x2926314a	3.6902156e-14
15	0x2e01940d	2.94627e-11
16	0x2b3a9967	6.6293363e-13
17	0x2cef4998	6.800959e-12
18	0x2a8c98d3	2.497504e-13
19	0x2d775172	1.4058409e-11
20	0x2ec85f5e	9.1118876e-11
21	0x2d815b53	1.4706158e-11
22	0x2d7c2c17	1.43343315e-11
23	0x2bb5d4cf	1.291989e-12
24	0x2de04eb9	2.5500812e-11
25	0x2a2e9205	1.5504965e-13
26	0x2e4f6161	4.715284e-11
27	0x2d98d69c	1.7375705e-11
28	0x2ea3d6ca	7.450536e-11
29	0x2d9fcdda	1.8167624e-11
30	0x2e92a009	6.667739e-11
31	0x2c3d05f3	2.6861818e-12
32	0x2d6f6d32	1.3609823e-11
33	0x35fff478	1.907013e-06
34	0x35a2ae87	1.2120735e-06
35	0x34b4857c	3.3624735e-07
36	0x2af30a0b	4.317244e-13
37	0x31a4ba21	4.7941886e-09
38	0x35f26de0	1.8062383e-06
39	0x3137f56c	2.676951e-09
40	0x3651c718	3.1259315e-06
41	0x35af180e	1.3045517e-06
42	0x34d32817	3.9330982e-07
43	0x360af2f6	2.0705024e-06
44	0x357da20e	9.4485665e-07
45	0x35a68e44	1.2409369e-06
46	0x2d76e51c	1.40343535e-11
47	0x33850347	6.193891e-08
48	0x357a3fe7	9.322525e-07
49	0x35300a31	6.557994e-07
50	0x3651cc60	3.1262389e-06
51	0x359dad26	1.1747804e-06
52	0x3518fb4e	5.699011e-07
53	0x34b24c00	3.321038e-07
54	0x33d70a59	1.00136e-07
55	0x2e646832	5.1933742e-11
56	0x2e906791	6.566759e-11
57	0x359a5e9b	1.1501428e-06
58	0x3525ec5c	6.181124e-07
59	0x34a3b7b4	3.0494778e-07
60	0x34e6945c	4.2948784e-07
61	0x3272bf21	1.4129712e-08
62	0x362d42b0	2.5817826e-06
63	0x363fa284	2.8555814e-06
64	0x2b1910f4	5.4380046e-13
65	0x35733679	9.060382e-07
66	0x34356c97	1.6896443e-07
67	0x32db8c46	2.5558744e-08
68	0x2f1b2dbc	1.4113416e-10
69	0x32a19036	1.8808446e-08
70	0x33850545	6.1942536e-08
71	0x32889800	1.5901605e-08
72	0x3325a919	3.857085e-08
73	0x32d6ac02	2.4991099e-08
74	0x2fc33013	3.5504452e-10
75	0x3281f767	1.5130082e-08
76	0x35490c8c	7.4896593e-07
77	0x32bf87c7	2.229707e-08
78	0x2ea50733	7.50461e-11
79	0x32e57682	2.6713e-08
80	0x354b3a1d	7.570796e-07
81	0x34b85d7f	3.4340698e-07
82	0x307bb61e	9.157207e-10
83	0x35531c02	7.864438e-07
84	0x3256abdf	1.2495518e-08
85	0x2f6b3d0b	2.1394812e-10
86	0x34281dcc	1.565706e-07
87	0x2e8e58bf	6.473177e-11
88	0x2ed1e1e0	9.544343e-11
89	0x3154dae8	3.0974494e-09
90	0x34bad29a	3.4798433e-07
91	0x34728327	2.2585719e-07
92	0x335dc9a9	5.163898e-08
93	0x2bcfd347	1.4766876e-12
94	0x2c77605f	3.5154308e-12
95	0x34b88371	3.4368307e-07
96	0x2d83ff8e	1.5006465e-11
97	0x3904cd10	0.00012664893
98	0x385d0af3	5.2700703e-05
99	0x378af0f0	1.6563077e-05
100	0x2e7027a3	5.4604887e-11
101	0x3502f1cf	4.878065e-07
102	0x38e226a3	0.000107837164
103	0x34ae2b4c	3.2441528e-07
104	0x392cce20	0.00016479986
105	0x389f7b20	7.6046446e-05
106	0x37966cbc	1.7932027e-05
107	0x38d49082	0.000101358644
108	0x3889c18c	6.56872e-05
109	0x38993ede	7.3073184e-05
110	0x2e4b2fc9	4.6199298e-11
111	0x368b5556	4.152457e-06
112	0x388fd7ca	6.858965e-05
113	0x38532d7e	5.0348688e-05
114	0x391fdd0b	0.00015245767
115	0x38b69992	8.707041e-05
116	0x37cd871e	2.4500823e-05
117	0x37b95b2d	2.2096176e-05
118	0x371d02a4	9.358544e-06
119	0x2e861254	6.09687e-11
120	0x2e9f4a24	7.243653e-11
121	0x3887690e	6.4568696e-05
122	0x381b2fb3	3.6999303e-05
123	0x37b4c4bd	2.1549286e-05
124	0x37bc5cd7	2.2454578e-05
125	0x3549aeea	7.513287e-07
126	0x38f89663	0.00011853573
127	0x391d3d6a	0.00014995565
128	0x2cfebdcd	7.2401863e-12
129	0x2a14b053	1.3206215e-13
130	0x2e604d3c	5.10003e-11
131	0x2cf8450e	7.0562505e-12
132	0x2a833154	2.3304503e-13
133	0x2e320873	4.048002e-11
134	0x2a5e2225	1.9729407e-13
135	0x2e2e35af	3.96107e-11
136	0x2c88b28d	3.8851756e-12
137	0x2dd757d2	2.448167e-11
138	0x2e104833	3.2805935e-11
139	0x2c06f604	1.9179111e-12
140	0x2c104656	2.0502675e-12
141	0x21aa2bb2	1.1531214e-18
142	0x2be520ae	1.6280499e-12
143	0x2cec2e19	6.7126413e-12
144	0x2d2cf037	9.8304065e-12
145	0x2dd90bde	2.4675314e-11
146	0x2e1857d1	3.4638795e-11
147	0x2b3cf51d	6.713118e-13
148	0x2d38c563	1.0503018e-11
149	0x2dcc97f7	2.32596e-11
150	0x2c575621	3.0601149e-12
151	0x2a53b8a5	1.8804626e-13
152	0x2cc2e729	5.5394756e-12
153	0x2d452953	1.1207329e-11
154	0x2d3ff133	1.091065e-11
155	0x2bf4dfa8	1.739932e-12
156	0x2d1f3bb2	9.051359e-12
157	0x2c97a810	4.310337e-12
158	0x2d8193bc	1.473121e-11
159	0x2b1a8ebb	5.490987e-13
160	0x2daf49da	1.9927993e-11
161	0x2a63473d	2.0186366e-13
162	0x2d9e9301	1.8027803e-11
163	0x2eb75789	8.337426e-11
164	0x2a58d02b	1.9256877e-13
165	0x2b974bbc	1.0750216e-12
166	0x2c30be60	2.5116784e-12
167	0x2d7549c6	1.3943019e-11
168	0x2e071692	3.0715493e-11
169	0x2e18a833	3.471019e-11
170	0x2c1758ba	2.1507644e-12
171	0x2ce80703	6.594615e-12
172	0x2b9a9189	1.0982752e-12
173	0x2a07583b	1.202102e-13
174	0x2d11a26a	8.278359e-12
175	0x2b4f3f1b	7.362875e-13
176	0x2e25649f	3.7606026e-11
177	0x2e70a439	5.471554e-11
178	0x2e05ca5f	3.042044e-11
179	0x2db1101a	2.012972e-11
180	0x2d9610e1	1.7060521e-11
181	0x2e11c508	3.3144182e-11
182	0x2e5c57ac	5.0100077e-11
183	0x2ca84ce7	4.783385e-12
184	0x2ea9cd4e	7.7217e-11
185	0x2e1d3938	3.5748488e-11
186	0x2d109739	8.2190305e-12
187	0x2e9cd5fd	7.1320706e-11
188	0x2d00da69	7.324454e-12
189	0x2a19a642	1.3646812e-13
190	0x2d9de526	1.7950596e-11
191	0x2c1702f7	2.1460036e-12
192	0x26a258ed	1.1265112e-15
193	0x2fb3bcbc	3.2694014e-10
194	0x2f80f7be	2.3459096e-10
195	0x2ee5df90	1.0453427e-10
196	0x2e2523d1	3.7548468e-11
197	0x2bd88cb7	1.5386779e-12
198	0x2fa61fd6	3.0217845e-10
199	0x2c176663	2.1515227e-12
200	0x302539cd	6.010879e-10
201	0x2f7267cf	2.2046652e-10
202	0x2ed17a5d	9.525956e-11
203	0x2fdb8b06	3.993465e-10
204	0x2f343bee	1.6392196e-10
205	0x2f61b901	2.0529357e-10
206	0x2c234526	2.3202078e-12
207	0x2c8b409a	3.95779e-12
208	0x2f450248	1.7917856e-10
209	0x2f506fd7	1.8957223e-10
210	0x301d0aea	5.7131777e-10
211	0x2f847d3c	2.4099645e-10
212	0x2f3427a2	1.6384985e-10
213	0x2e3b0209	4.2520685e-11
214	0x2c71a9a0	3.434232e-12
215	0x2c474fca	2.8323893e-12
216	0x2c67f5a3	3.296343e-12
217	0x2f496826	1.8317844e-10
218	0x2ed9ccae	9.904376e-11
219	0x2f07566c	1.2308882e-10
220	0x2e83e9d8	5.998729e-11
221	0x2ed51bae	9.6910355e-11
222	0x2ff509d8	4.4572235e-10
223	0x301b2702	5.6444105e-10
224	0x2ee531b0	1.04225406e-10
225	0x382b4c0d	4.0840405e-05
226	0x37a17dec	1.9251333e-05
227	0x36cb0bdf	6.0512534e-06
228	0x2e1df2bb	3.5913255e-11
229	0x33d4a787	9.902492e-08
230	0x381fadeb	3.8070528e-05
231	0x3370c2c4	5.6056493e-08
232	0x387cee79	6.0303577e-05
233	0x37e48a63	2.724416e-05
234	0x36dd8780	6.6020875e-06
235	0x381dea42	3.7649887e-05
236	0x37aa08f0	2.0269741e-05
237	0x37d9807b	2.5928244e-05
238	0x2dd0ca5b	2.3736726e-11
239	0x35b4d79a	1.3473793e-06
240	0x37aeb993	2.0828831e-05
241	0x378363e1	1.5662927e-05
242	0x38710319	5.7461762e-05
243	0x37e14cd5	2.6857868e-05
244	0x371d2744	9.3670715e-06
245	0x3704d850	7.918177e-06
246	0x361bb0dd	2.3199748e-06
247	0x2e18df2a	3.4759008e-11
248	0x2a0c29f3	1.2449052e-13
249	0x37c2bc34	2.3214241e-05
250	0x373e3f58	1.1339631e-05
251	0x36e26385	6.7469105e-06
252	0x3704a3f4	7.905986e-06
253	0x34a1cb02	3.0136295e-07
254	0x38430bd5	4.6502642e-05
255	0x385e7e33	5.3046457e-05

exp_avg f4 [32]
0	0x00000000	0.0
1	0x3a628a6e	0.00086418435
2	0xb5f70e1c	-1.840704e-06
3	0xbb3f20bd	-0.00291638
4	0x00000000	0.0
5	0xb247f504	-1.1639035e-08
6	0x35870b33	1.0061543e-06
7	0x3b008774	0.0019611986
8	0x3ac38922	0.0014918188
9	0x3b175471	0.0023091102
10	0xbb216e7f	-0.0024632511
11	0x3a9422b0	0.0011301842
12	0xbae0a498	-0.0017138897
13	0x3b45e629	0.0030197
14	0xbb689730	-0.0035490505
15	0xbaf1bdae	-0.001844337
16	0xb6384e31	-2.746365e-06
17	0x3b0898b9	0.0020842983
18	0x3b22c30b	0.0024835493
19	0xbac48177	-0.0014992197
20	0xbb073bde	-0.002063505
21	0xbb24e1b0	-0.0025158934
22	0xbb430f10	-0.0029763617
23	0xba8f0a48	-0.0010913098
24	0x3a96b74c	0.0011498719
25	0x00000000	0.0
26	0x3b326ef1	0.002722677
27	0x3b063c50	0.0020482726
28	0x3440b762	1.7948108e-07
29	0xbb199f77	-0.0023440996
30	0x00000000	0.0
31	0xbb4046eb	-0.0029339145

exp_avg_sq f4 [32]
0	0x00000000	0.0
1	0x36270097	2.4885283e-06
2	0x3586ba6b	1.0038033e-06
3	0x3940aa76	0.00018374049
4	0x00000000	0.0
5	0x2a5160d0	1.8596518e-13
6	0x300de399	5.1618937e-10
7	0x38595025	5.1811472e-05
8	0x382bd39e	4.096666e-05
9	0x391382cf	0.00014067742
10	0x38b3e3a7	8.577789e-05
11	0x376902ff	1.388858e-05
12	0x390418eb	0.00012597784
13	0x394be5e2	0.00019445227
14	0x38ce0a4b	9.824763e-05
15	0x3868e3cc	5.5525263e-05
16	0x353e1a19	7.081849e-07
17	0x38a9a039	8.088392e-05
18	0x39401e69	0.00018321876
19	0x36e81e85	6.9176917e-06
20	0x38acfa60	8.248235e-05
21	0x39291e40	0.00016128365
22	0x3979dc14	0.00023828476
23	0x376eeb91	1.42407525e-05
24	0x37912b00	1.730537e-05
25	0x00000000	0.0
26	0x39250973	0.00015739146
27	0x38241daa	3.9128274e-05
28	0x31293b8e	2.462659e-09
29	0x38f603ba	0.00011730888
30	0x00000000	0.0
31	0x38e347f4	0.00010837606

exp_avg f4 [1, 32]
0	0x07ee6cf7	3.5874304e-34
1	0xb9db265e	-0.0004179952
2	0x3775ecd1	1.4658276e-05
3	0x3b5acad5	0.0033385057
4	0xa2b641fb	-4.940106e-18
5	0x33e59b87	1.0691934e-07
6	0x37bf53da	2.280802e-05
7	0xbaa4ed4a	-0.0012582925
8	0xb9bb3d0a	-0.00035712897
9	0xba89eac3	-0.0010522235
10	0x3ba88b46	0.005143556
11	0x387237b5	5.7749177e-05
12	0x3bb138b6	0.005408372
13	0xbad0836e	-0.001590831
14	0x3b7f5acd	0.0038964034
15	0x3bf2f371	0.0074142744
16	0x37e18ce6	2.6887701e-05
17	0xba1ee052	-0.0006060648
18	0xba9602f0	-0.0011444967
19	0x3ad4508a	0.0016198319
20	0x3bb410ac	0.0054951515
21	0x3bcbd6b6	0.006220664
22	0x3c029e3a	0.007972294
23	0x3b9afea8	0.0047300644
24	0xb9a3ee1d	-0.0003126719
25	0x859a2677	-1.449622e-35
26	0xba2b5ed5	-0.00065372634
27	0xba6104cc	-0.00085837836
28	0xb575c6fc	-9.155917e-07
29	0x3bbdfc97	0.0057979333
30	0xa84a0775	-1.12148695e-14
31	0x3bb331d1	0.005468585

exp_avg_sq f4 [1, 32]
0	0x2ad55665	3.789635e-13
1	0x370dfa5b	8.462545e-06
2	0x3492c671	2.7339004e-07
3	0x39002f8a	0.00012224741
4	0x2d1b9d4e	8.845659e-12
5	0x2b0d2eb0	5.0158055e-13
6	0x3336f479	4.2597524e-08
7	0x39d69f03	0.00040935734
8	0x3a0be4b7	0.00053365104
9	0x3a585e3b	0.00082537875
10	0x39303b5e	0.00016806784
11	0x3a44f5b4	0.0007513419
12	0x3a38863c	0.00070390454
13	0x39988f54	0.00029098487
14	0x3804a1e0	3.162201e-05
15	0x3a0af096	0.00053001323
16	0x33afea26	8.191664e-08
17	0x39cf20f2	0.00039506663
18	0x3a63c66d	0.00086889305
19	0x3612920a	2.1840701e-06
20	0x399e85f3	0.00030235908
21	0x39e4bf3a	0.00043630024
22	0x3a279f5c	0.0006394291
23	0x3997d650	0.0002896064
24	0x3a98864c	0.0011636703
25	0x29511183	4.642251e-14
26	0x39c6ffe6	0.00037956162
27	0x393e56c1	0.0001815213
28	0x30e498f4	1.6632655e-09
29	0x39d1c647	0.00040011315
30	0x2d672d9b	1.3140956e-11
31	0x3929cd11	0.00016193489
