ANN/simple_ann.pth (torch, 2491 bytes, 3 tensors)

fc1.weight f4 [4, 2]
00000000: d759 2d41 12d7 2d41 65fb 5941 279c 5b41
00000010: d48a 14c1 415a 15c1 8f11 4641 c754 4741
10.834434 10.865007 13.623876 13.725623 -9.283894 -9.334535 12.379287 12.458198

fc1.bias f4 [4]
00000000: ec89 31c1 3bd7 5ec1 273a 1a41 8183 4ac1
-11.096172 -13.9275465 9.639197 -12.657105

fc2.weight f4 [1, 4]
00000000: a954 eb40 de8e bb40 a14b 12c1 210c 0c41
7.3540845 5.86119 -9.143464 8.752961
